models/iris_ANN.pt (torch_old, 1512 bytes, 6 tensors)

input_layer.weight f4 [8, 4]
000000 95 9b 1d 3f 07 b0 03 3f ae 36 23 be c5 23 3d be
       0.61565524 0.5144047 -0.15938827 -0.18470676
000010 9b 0f a3 bd 6e e7 8b 3e 8e 51 10 3f f6 05 f3 3e
       -0.07961961 0.27325004 0.5637444 0.47465485
000020 a4 a2 17 3f 6d e6 b6 3e 41 6d f4 bc 06 d4 9c be
       0.59232545 0.35722676 -0.029837253 -0.3063051
000030 78 57 7e be 57 c1 44 bd 88 f2 96 3f 99 50 91 3f
       -0.24838054 -0.048035946 1.1792765 1.1352721
000040 d8 57 0e 3f 98 d7 ef 3e be 09 6f 3e 49 0d 85 be
       0.5560279 0.46844172 0.2334356 -0.25986698
000050 ea 04 61 3e bd 9a 07 bf b2 88 7b 3f 5f 0d 22 3f
       0.21974531 -0.52970487 0.98255455 0.6330165
000060 33 8a d5 3e 45 2b cc 3e b6 ff b6 be aa bb 8b bf
       0.41707 0.39876762 -0.35741967 -1.0916646
000070 ce bc e7 be 79 e9 0a 3e 84 e0 6a be 32 53 93 bd
       -0.45261234 0.13565625 -0.22937208 -0.071936026

input_layer.bias f4 [8]
000000 f9 35 4d 3f 19 93 5a bf bc 35 41 3f 0f 78 42 bf
       0.8016048 -0.85380703 0.7547262 -0.75964445
000010 03 b0 83 3f e3 a9 6b bf 4c 23 a4 3f 0a a5 94 be
       1.028809 -0.920561 1.2823272 -0.29032165

hidden_layer.weight f4 [4, 8]
000000 e7 8a af bd d6 22 79 3f f7 e4 b4 3d c1 97 5b 3f
       -0.085714154 0.9731878 0.08832734 0.85778433
000010 88 6e 29 3e c1 80 5e 3f c3 9c b6 be ce 4d ed be
       0.1654607 0.8691521 -0.35666475 -0.46348423
000020 af 0e 3e bf b5 19 c7 3e b0 0f 37 bf 12 78 39 3f
       -0.74241155 0.388868 -0.7150831 0.7244884
000030 91 54 90 bf 7e 2d f4 3e e1 ae 90 bf 65 4b 98 bc
       -1.1275808 0.47690958 -1.1303369 -0.018590638
000040 e7 2d 9e be 81 45 51 3f 88 b8 5d be 82 04 83 3f
       -0.30894396 0.8174668 -0.21652424 1.0235751
000050 90 47 80 be 73 bd da 3e ef c3 bd bf 47 a6 65 3e
       -0.25054598 0.42722663 -1.4825419 0.22426711
000060 e3 cd 82 3e 9f d1 37 3e 53 4c 94 3e fe 99 dc be
       0.25547704 0.17951058 0.2896448 -0.43086237
000070 df c6 83 be 18 34 ff be fb e5 5f 3f 47 77 34 be
       -0.25737664 -0.49844432 0.874603 -0.17623626

hidden_layer.bias f4 [4]
000000 07 05 9c be 9a ef 84 bf ac 4b 85 bf ba be 5d be
       -0.30472586 -1.038562 -1.0413718 -0.21654788

output_layer.weight f4 [3, 4]
000000 f3 44 ef be ed c8 71 bf 66 c7 3a bf 17 10 44 3f
       -0.46732292 -0.94447213 -0.7296051 0.7658705
000010 0c 15 19 3f 9f d2 1b bf e9 f7 68 bf 7b 6e 46 bf
       0.5979774 -0.6086826 -0.9100328 -0.7751233
000020 20 7a 42 3f 58 08 bb 3f aa d4 c1 3f ae 5b d7 be
       0.759676 1.4611921 1.5143025 -0.42062134

output_layer.bias f4 [3]
000000 f2 8b 44 3e 33 e7 07 3f dc 7e 20 bf
       0.1919401 0.53087157 -0.6269357
